tiny_char_rnn.pt (torch, 330655 bytes, 7 tensors)

embed.weight f4 [38, 64]
-0.2294685 -1.4158022 -0.39948356 0.116471894 -0.76020044 -1.576182 -0.0876633 0.6849394
-0.46387446 -0.13426776 -0.7138419 0.7131152 -1.4598079 -1.1560538 1.1865466 -1.2065158
-0.14688252 -0.05737423 0.057721227 -0.023903703 0.019060176 -1.1346344 0.9135542 -0.88244975
1.1580721 -0.39559498 -0.3302296 -0.28812706 -0.9221915 -0.36047167 1.5022031 0.5133579
0.25130475 -1.1905749 1.5375305 -0.825093 0.5884606 -0.59245634 0.9722443 1.1582589
0.1707446 -1.4764806 1.2721982 0.021201193 -0.030465668 -1.4719684 -1.0664644 -1.1834532
1.9721475 1.0293599 -0.2423006 1.5886482 1.536191 -0.9147272 1.1170622 -0.9881032
0.14240909 -0.57114124 -0.7259613 -0.14414021 -0.88363725 -1.1102592 -0.42508858 0.8788414
0.0029365388 1.1934047 1.8490454 -0.51108766 0.40719962 0.58047557 -0.7299665 -0.61798173
-0.23714462 3.5034802 -1.7275002 1.2548516 -1.5284594 2.4486308 -0.61590993 -1.3958021
-0.08783817 -0.32477435 1.0123408 0.17869803 -0.422388 0.03947041 0.9615455 -1.5458103
-0.12937675 -0.7330401 0.21050556 0.88061506 0.688185 1.2754108 -0.013900816 -1.3738981
1.5816916 -0.051194128 0.51155716 0.62847716 1.4500138 1.0445256 -1.2732972 0.44832638
0.23010375 -0.80035484 -2.865433 -0.60899496 -0.7215192 -1.4358183 0.5552989 0.015245689
-0.774932 -0.39869317 0.15947665 -0.76631 0.98304296 0.59807545 1.4635017 -0.35002923
-0.607032 0.60657436 -1.1936098 -0.3497032 0.89312005 -0.4060692 1.6208392 1.2707961
2.050225 0.54365504 -0.16697064 0.6528265 -1.6433067 -0.7756558 0.096571974 0.46149218
-1.7737362 -2.5366633 1.1341255 0.8076356 -0.8914961 -1.5883799 -1.0042626 -0.010069369
-0.2228531 0.25748947 -0.05757463 -0.2919908 -1.1933069 -1.4184855 0.47976923 0.7966905
-0.21116844 -0.80218184 -0.88929784 1.8737482 0.24891712 0.13724433 -1.242216 -3.106325
0.7961048 -0.7493094 -0.1224912 -0.83967435 -0.29396558 0.16307156 -0.9626378 0.091652974
-0.4624261 -1.1337342 0.15394078 1.1309985 2.1480203 0.8644453 0.04212839 -2.1279647
-0.21823582 -1.0506942 -1.018831 0.36533555 0.5551357 0.3636811 -0.28329775 0.5495712
2.0306187 0.35541433 1.1462946 0.037910536 -1.1851554 -0.18953899 -0.48176736 2.7315204
-1.4127113 -0.20658362 0.56228733 0.84576654 -0.326453 -0.44116637 -1.4385536 -0.4000392
1.0220243 -1.003707 1.0814053 1.0456479 -1.3067513 0.82349837 0.22811447 -0.85529214
-2.2816398 -0.8589956 -0.11266999 0.4163848 -0.27088368 1.4504138 -0.9084368 -0.9512517
0.7374491 -2.2369676 1.430459 -1.0113354 1.2960538 0.13729192 -2.2006752 1.3640845
0.48693556 -0.71698964 2.286725 -0.08887471 -0.17197093 -0.6231715 -1.3558865 -0.34223828
0.58390564 -0.28755513 -0.7362586 0.28538486 -0.724341 1.3348186 0.54486305 0.6698649
-0.43992877 -0.81574327 0.30237842 0.47947702 0.565067 0.4123361 0.11928501 -0.20180507
-0.29328138 1.6147014 2.0321674 -1.0371187 0.5921229 2.8276925 1.1722438 0.60024613
00000000: caf9 6abe 0239 b5bf 1c89 ccbe d188 ee3d
00000010: 7f9c 42bf 55c0 c9bf d188 b3bd 3058 2f3f
00000020: f480 edbe 7d7d 09be 58be 36bf b88e 363f
00000030: fcda babf 92f9 93bf c2e0 973f 1c6f 9abf
00000040: 5f68 16be 3e01 6bbd 186d 6c3d b3d1 c3bc
00000050: 1624 9c3c b33b 91bf b0de 693f 3ae8 61bf
00000060: b53b 943f 6d8b cabe db13 a9be 6485 93be
00000070: be14 6cbf be8f b8be 3148 c03f 6c6b 033f
00000080: 04ab 803e c264 98bf cdcd c43f 4b39 53bf
00000090: 5ba5 163f 38ab 17bf 01e5 783f d441 943f
000000a0: acd7 2e3e 51fd bcbf 64d7 a23f 20ae ad3c
000000b0: 2393 f9bc 7669 bcbf e881 88bf 657b 97bf
000000c0: 546f fc3f 11c2 833f a61d 78be d358 cb3f
000000d0: e8a1 c43f 902b 6abf e5fb 8e3f 55f4 7cbf
000000e0: b0d3 113e 5036 12bf 9ad8 39bf 7e99 13be
000000f0: 0d36 62bf f91c 8ebf 36a5 d9be c0fb 603f
00000100: f272 403b 7cc1 983f 85ad ec3f a4d6 02bf
00000110: 787c d03e 0c9a 143f 16df 3abf 0d34 1ebf
00000120: 0ad6 72be 0539 6040 ba1e ddbf fa9e a03f
00000130: 8fa4 c3bf 5eb6 1c40 46ac 1dbf a5a9 b2bf
00000140: 80e4 b3bd d348 a6be 6294 813f 9efc 363e
00000150: 3d43 d8be baab 213d d927 763f 1ddd c5bf
00000160: 577b 04be 84a8 3bbf c58e 573e fd6f 613f
00000170: e42c 303f a940 a33f 40c0 63bc e5db afbf
00000180: df74 ca3f efb0 51bd 69f5 023f e1e3 203f
00000190: 0d9a b93f 04b3 853f 67fb a2bf 098b e53e
000001a0: 51a0 6b3e 0ee4 4cbf 4163 37c0 18e7 1bbf
000001b0: 7bb5 38bf e5c8 b7bf 1228 0e3f 0ec9 793c
000001c0: f261 46bf 8321 ccbe d94d 233e e42c 44bf
000001d0: b4a8 7b3f 791b 193f 0654 bb3f 0837 b3be
000001e0: 7366 1bbf 7548 1b3f 35c8 98bf 4c0c b3be
000001f0: 84a3 643f 4de8 cfbe a977 cf3f 72a9 a23f
00000200: e336 0340 fa2c 0b3f 5afa 2abe a31f 273f
00000210: e057 d2bf 6191 46bf 87c7 c53d b448 ec3e
00000220: ca09 e3bf b158 22c0 062b 913f 35c1 4e3f
00000230: 1739 64bf 0850 cbbf ad8b 80bf fff9 24bc
00000240: 9a33 64be a9d5 833e 60d3 6bbd d17f 95be
00000250: 48be 98bf ef90 b5bf 50a4 f53e e9f3 4b3f
00000260: 8a3c 58be ca5b 4dbf 06a9 63bf fbd6 ef3f
00000270: 21e4 7e3e c789 0c3e ef00 9fbf 07ce 46c0
00000280: 86cd 4b3f bed2 3fbf abdc fabd e6f4 56bf
00000290: a882 96be 3bfc 263e 6e6f 76bf 8eb4 bb3d
000002a0: 1dc3 ecbe 341e 91bf a7a2 1d3e 8fc4 903f
000002b0: 2a79 0940 4a4c 5d3f d28e 2c3d 9330 08c0
000002c0: 3679 5fbe 267d 86bf 0e69 82bf 430d bb3e
000002d0: 601d 0e3f 6934 ba3e 670c 91be b3b0 0c3f
000002e0: a8f5 0140 def8 b53e c8b9 923f 1448 1b3d
000002f0: 2cb3 97bf 8216 42be 36aa f6be 3bd1 2e40
00000300: b9d3 b4bf a88a 53be 10f2 0f3f 2884 583f
00000310: d924 a7be 8fe0 e1be 8622 b8bf f0d1 ccbe
00000320: b1d1 823f 7979 80bf 7d6b 8a3f cad7 853f
00000330: a043 a7bf cad0 523f d796 693e 6df4 5abf
00000340: 6306 12c0 23e7 5bbf 86bf e6bd 6330 d53e
00000350: 44b1 8abe 29a7 b93f 508f 68bf 3b85 73bf
00000360: 77c9 3c3f 7a2a 0fc0 4819 b73f 7073 81bf
00000370: 17e5 a53f 4196 0c3e ddd7 0cc0 529a ae3f
00000380: 9e4f f93e a28c 37bf b459 1240 f203 b6bd
00000390: 2619 30be 2b88 1fbf b08d adbf db39 afbe
000003a0: d77a 153f 6d3a 93be 727b 3cbf f71d 923e
000003b0: 696e 39bf 56db aa3f 257c 0b3f 447c 2b3f
000003c0: 583e e1be 8dd4 50bf 58d1 9a3e 037e f53e
000003d0: 3ba8 103f b81d d33e b34b f43d fda5 4ebe
000003e0: fa28 96be 89ae ce3f 080f 0240 4ec0 84bf
000003f0: 5e95 173f eaf8 3440 160c 963f bba9 193f

rnn.weight_ih_l0 f4 [384, 64]
-0.05640318 0.040658258 0.053464327 -0.057018247 0.09320914 0.087829866 0.074086204 -0.054198932
0.000557018 -0.07662964 0.0055352952 0.078629695 -0.07439036 0.03387555 -0.11876815 0.039517146
0.010025516 -0.04608004 -0.01753702 -0.08892254 -0.07956536 0.092458114 0.052341104 0.052891098
-0.01974977 -0.027631596 -0.113295645 -0.0023552747 -0.021731233 0.09109619 0.111569874 0.09328378
0.12315143 0.14296652 -0.0125335455 0.10873832 -0.025807898 0.17292316 -0.028611608 -0.023255995
0.18550816 -0.055821177 -0.05002049 0.06843949 -0.04968697 0.08370357 0.112165734 -0.0642158
0.008342583 0.0033463873 0.15181902 -0.15716253 0.0509959 -0.009696254 -0.013218074 -0.057692677
-0.18729797 -0.09483462 -0.0649903 0.08433576 0.10523859 0.033827465 0.04332533 -0.020465279
0.12572952 -0.0193824 -0.016992958 -0.0033734501 -0.10553308 0.08453372 -0.08243739 0.052860048
-0.038277645 -0.05126577 0.100735456 -0.014351202 -0.10072875 0.024796069 -0.06428476 0.053497747
0.038209386 0.06822374 -0.01960649 0.055020683 -0.12871179 -0.06043633 -0.09343963 0.1712386
-0.19510993 0.13361037 -0.1277264 0.04699106 -0.07565335 -0.1006921 0.015489101 0.038793955
0.06905143 0.06558976 -0.18154198 -0.061622266 -0.103879064 0.04325811 -0.050794754 -0.009244582
-0.060961362 0.05762352 0.027136398 -0.13695918 0.031230316 0.15550543 -0.047798496 -0.10539344
0.092114724 0.09053263 -0.09810076 0.052428614 -0.022922149 0.11715322 -0.07078481 0.16084549
-0.024097 -0.09546782 0.03303213 0.1702951 -0.10244015 0.05068975 0.0060998197 -0.005612056
-0.0014860092 -0.072360255 0.094505504 0.14995155 0.17701823 -0.1693099 0.18155599 -0.1994503
0.023456914 -0.05231559 0.040937122 0.027664334 0.053383056 -0.040110085 -0.19832067 -0.06477146
0.026236957 0.13568434 0.14151968 -0.21346742 -0.1304528 0.084254265 0.04832836 -0.07421405
-0.07447344 -0.027175024 -0.11979163 -0.04052144 -0.14277565 0.23723336 0.18917772 -0.06352576
0.07087606 -0.07890597 0.25210327 0.13986768 0.13337712 0.18235475 -0.015440268 -0.08184898
-0.0028821945 -0.15592957 -0.041083973 0.123051845 -0.01376424 0.040925205 0.21614489 -0.028325308
-0.08118686 -0.14034176 0.19766757 -0.028439505 -0.12281957 -0.010474088 0.013143359 0.047722347
0.1544895 -0.23638366 -0.2072092 0.16351555 0.04732771 -0.010574307 -0.014421406 0.07627364
-0.085018665 -0.08645629 -0.046111748 0.08264208 -0.07924408 -0.077082604 -0.03501284 0.116050914
0.009871926 0.13387951 0.015601067 -0.13406478 0.06291676 0.075138114 0.0497188 0.047997072
-0.08364543 -0.01016561 0.13929343 -0.12705263 -0.124965645 -0.1875389 -0.048903216 0.0057802084
0.016146027 0.079664715 0.016875118 -0.08959604 0.13237806 -0.08089874 0.003672919 -0.06991517
0.0026832002 0.14880262 0.14962743 0.02943153 0.119494796 -0.09351043 0.11953337 -0.04348722
-0.05376914 0.043729167 0.048582666 -0.050861422 0.06741119 0.05639313 -0.04709048 0.02097257
0.013372074 -0.0047163325 -0.06377222 0.112360485 -0.015154874 -0.025126673 -0.013614199 -0.0875319
0.083761565 0.047777127 0.037579745 0.0015568981 0.012511483 0.032367114 0.0403342 0.073144525
00000000: 0507 67bd 4689 263d 69fd 5a3d f78b 69bd
00000010: 6fe4 be3d 25e0 b33d 82ba 973d b3ff 5dbd
00000020: d804 123a 00f0 9cbd 6c61 b53b 9b08 a13d
00000030: f959 98bd 17c1 0a3d b73c f3bd bbdc 213d
00000040: 1042 243c 6dbe 3cbd cca9 8fbc 051d b6bd
00000050: 2af3 a2bd ae5a bd3d a063 563d 56a4 583d
00000060: 45ca a1bc a85b e2bc 8c07 e8bd f45a 1abb
00000070: b305 b2bc a490 ba3d bf7e e43d 910b bf3d
00000080: d136 fc3d d165 123e 8059 4dbc 32b2 de3d
00000090: 166b d3bc c512 313e e462 eabc 5b83 bebc
000000a0: daf5 3d3e bfa4 64bd 49e2 4cbd 012a 8c3d
000000b0: 9084 4bbd c76c ab3d 26b7 e53d 9383 83bd
000000c0: 54af 083c 104f 5b3b 7276 1b3e 37ef 20be
000000d0: 14e1 503d 09dd 1ebc 9f90 58bc 284f 6cbd
000000e0: 0acb 3fbe a738 c2bd a219 85bd 3ab8 ac3d
000000f0: 5487 d73d ab8e 0a3d e775 313d cda6 a7bc
00000100: 3dbf 003e d7c7 9ebc d134 8bbc 1a15 5dbb
00000110: ba21 d8bd 0420 ad3d efd4 a8bd c783 583d
00000120: 05c9 1cbd 0efc 51bd 644e ce3d 4e21 6bbc
00000130: e04a cebd 2021 cb3c baa7 83bd 7420 5b3d
00000140: 7281 1c3d e3b8 8b3d ca9d a0bc 5e5d 613d
00000150: 06cd 03be 168c 77bd 475d bfbd 2c59 2f3e
00000160: e6ca 47be 28d1 083e b6ca 02be b379 403d
00000170: 25f0 9abd a937 cebd 00c6 7d3c 69e6 1e3d
00000180: d66a 8d3d ed53 863d 24e6 39be a167 7cbd
00000190: 8cbe d4bd 6a2f 313d 290e 50bd 9676 17bc
000001a0: 9fb2 79bd a406 6c3d 274d de3c 073f 0cbe
000001b0: b8d6 ff3c d13c 1f3e 5bc8 43bd 84d8 d7bd
000001c0: a5a6 bc3d 2c69 b93d 0de9 c8bd 63bf 563d
000001d0: 3bc7 bbbc 07ee ef3d a0f7 90bd aeb4 243e
000001e0: 1267 c5bc a284 c3bd b34c 073d d761 2e3e
000001f0: 24cc d1bd 0ea0 4f3d ffe0 c73b 56e5 b7bb
00000200: 32c6 c2ba 9d31 94bd 1a8c c13d e68c 193e
00000210: 4444 353e 935f 2dbe d0e9 393e b33c 4cbe
00000220: b728 c03c df48 56bd afad 273d 50a0 e23c
00000230: 31a8 5a3d 794a 24bd 9314 4bbe e6a6 84bd
00000240: e3ee d63c d6f0 0a3e 89ea 103e 3497 5abe
00000250: 6b95 05be 808d ac3d f5f3 453d 89fd 97bd
00000260: 8885 98bd 289e debc 5055 f5bd cff9 25bd
00000270: c833 12be 4ded 723e ceb7 413e cb19 82bd
00000280: 7827 913d 7499 a1bd ae13 813e 7939 0f3e
00000290: 0394 083e 34bb 3a3e 2ef9 7cbc 70a0 a7bd
000002a0: 33e3 3cbb 00ac 1fbe ab47 28bd 9b02 fc3d
000002b0: 6883 61bc 30a1 273d 1655 5d3e 7a0a e8bc
000002c0: 4c45 a6bd c0b5 0fbe 5e69 4a3e f7f9 e8bc
000002d0: d488 fbbd 829b 2bbc 3e57 573c 8278 433d
000002e0: 7f32 1e3e 8f0e 72be a62e 54be 9f70 273e
000002f0: b3da 413d dc3f 2dbc c347 6cbc 5b35 9c3d
00000300: 441e aebd ff0f b1bd acdf 3cbd 4040 a93d
00000310: b84a a2bd 7cdd 9dbd a069 0fbd 1aac ed3d
00000320: dcbd 213c b617 093e 9e9b 7f3c 4748 09be
00000330: 81da 803d 03e2 993d f1a5 4b3d 9498 443d
00000340: 4c4e abbd a98d 26bc f0a2 0e3e 161a 02be
00000350: fded ffbd 330a 40be bd4e 48bd e767 bd3b
00000360: ac44 843c 4127 a33d b03d 8a3c 217e b7bd
00000370: 1d8e 073e 3dae a5bd 5bb5 703b af2f 8fbd
00000380: a1d8 2f3b b75f 183e ef37 193e 641a f13c
00000390: b0b9 f43d 6582 bfbd e9cd f43d a81f 32bd
000003a0: 083d 5cbd 5b1d 333d 9efe 463d 1154 50bd
000003b0: e10e 8a3d 7cfc 663d f2e1 40bd abce ab3c
000003c0: 8b16 5b3c 778b 9abb 029b 82bd 411d e63d
000003d0: 264c 78bc 74d6 cdbc 170e 5fbc ed43 b3bd
000003e0: 2f8b ab3d f3b1 433d 38ed 193d d510 cc3a
000003f0: f7fc 4c3c 6193 043d 7935 253d cccc 953d

rnn.weight_hh_l0 f4 [384, 128]
0.025100809 0.043753892 -0.010297717 0.06292557 -0.11798976 -0.029570568 -0.10743755 -0.110417806
-0.066465475 0.027482271 -0.061775148 -0.19608653 0.09651559 0.045888577 0.025918847 0.10585364
0.097045444 -0.07206765 0.11506727 -0.042251203 -0.08040026 0.13267073 0.045778356 -0.00015821884
0.13069464 0.08947582 -0.1715071 -0.06391915 -0.056862928 0.06212343 -0.022825286 0.014292927
-0.032062642 0.10672249 -0.03332025 -0.0051868507 0.039046593 0.09985112 0.058037724 -0.09361844
-0.07254527 0.029167743 -0.17961709 -0.06479682 -0.07473327 -0.11229163 0.08326491 -0.037777767
-0.035919998 -0.07507178 0.09693158 -0.02893304 -0.0028628022 0.020416712 -0.15190274 -0.05482524
-0.10725663 -0.11866549 0.08488221 0.047962405 0.088755004 -0.052795816 0.057922862 -0.13050234
0.070246555 0.09879998 -0.09424149 -0.102512226 -0.16837962 -0.0020157667 0.05103627 0.030343994
0.0035761343 -0.05614879 0.02425359 -0.06724497 -0.05153269 -0.040643338 0.21464458 -0.05460413
0.13627045 -0.0298402 -0.07621473 -0.15633671 0.030627897 -0.0056828833 0.081672385 -0.17225882
-0.028574722 -0.07634511 0.007870196 -0.058590505 0.076839514 0.0015924395 0.008249808 0.04493696
0.059242368 -0.051355958 -0.07624658 -0.13914414 0.06648771 0.08120846 -0.011041594 -0.10619576
-0.032933034 -0.005957431 -0.07125 -0.07883411 -0.04344021 0.0110176075 -0.104534805 -0.031021845
-0.09877236 0.003377316 0.027242303 0.041543733 -0.048814632 0.06366381 -0.032291617 0.04836625
-0.10172649 -0.15614028 -0.15035427 0.16711639 -0.10492717 -0.019454999 -0.0127757015 0.11347527
-0.06698988 -0.064947926 0.090056315 0.015381243 0.010701609 0.036095176 0.009489507 -0.05075521
0.0022915606 0.04517082 -0.0473908 -0.052395403 -0.044261362 -0.023448506 0.05691628 0.08284114
0.019545928 -0.06708301 0.025230313 0.026899498 0.0066309585 -0.08110229 0.040073242 -0.12400777
-0.029811813 -0.025848055 0.13965358 0.018621823 -0.0030656005 -0.023955874 -0.03293028 0.061068103
-0.08547679 0.03738415 0.02716959 0.17590737 0.044646434 -0.014882887 0.0061203847 0.010324926
-0.04926493 -0.080483496 0.07375332 0.046373382 0.023595268 -0.030229758 0.01508237 -0.012698896
-0.10430708 0.042228915 0.06728079 0.0025915387 0.01627726 0.06706958 0.025174445 0.001297844
-0.11111408 0.0534489 0.008617789 0.13323429 -0.054230884 -0.015043923 -0.021247163 0.05919295
0.0153708905 0.052081194 0.064732194 0.11504965 -0.15314615 -0.0127074765 0.11100668 -0.08625129
0.05489315 -0.06663805 0.107262984 0.037134312 0.026057247 -0.009000169 0.07733405 -0.060617384
0.008167117 0.017146012 -0.0047697774 0.02244635 0.11240529 0.1677577 0.10611213 0.10912667
-0.09770935 -0.1387713 -0.08057958 -0.041935157 -0.011956468 -0.08681604 0.05843736 0.10275525
-0.12508154 -0.113855824 0.07883474 -0.13970737 -0.10350822 0.098716095 -0.12334809 -0.022052567
0.08078179 0.07897812 0.19380601 0.028380184 -0.06800482 -0.059060633 0.11114501 -0.091444984
-0.012271618 -0.052704204 0.101862356 -0.029441142 -0.13153994 -0.042757 -0.14897701 0.070166536
0.030638184 -0.0032042272 0.071190655 0.005047104 -0.029755188 -0.0950546 0.056404565 -0.09732601
00000000: 36a0 cd3c 4837 333d c1b7 28bc 1fdf 803d
00000010: 9ea4 f1bd fa3d f2bc 3808 dcbd bb22 e2bd
00000020: 0d1f 88bd 8022 e13c f007 7dbd e8ca 48be
00000030: f7a9 c53d a9f5 3b3d c353 d43c cbc9 d83d
00000040: c3bf c63d 3498 93bd 64a8 eb3d 990f 2dbd
00000050: e4a8 a4bd d6da 073e 1682 3b3d 8ce7 25b9
00000060: d1d4 053e 193f b73d 8f9f 2fbe 0be8 82bd
00000070: 1ae9 68bd 2375 7e3d 18fc babc e22c 6a3c
00000080: 1e54 03bd 5291 da3d d17a 08bd 75f6 a9bb
00000090: 52ef 1f3d be7e cc3d f7b8 6d3d 06bb bfbd
000000a0: 9d92 94bd 31f1 ee3c 8bed 37be 32b4 84bd
000000b0: c20d 99bd 27f9 e5bd cb86 aa3d dcbc 1abd
000000c0: d920 13bd 3cbf 99bd 1084 c63d fc04 edbc
000000d0: da9d 3bbb f340 a73c 648c 1bbe 6e90 60bd
000000e0: 5da9 dbbd e406 f3bd b9d6 ad3d 3a74 443d
000000f0: 2fc5 b53d 6d40 58bd 8640 6d3d 68a2 05be
00000100: 6ddd 8f3d a557 ca3d af01 c1bd eef1 d1bd
00000110: b56b 2cbe f41a 04bb 680b 513d f893 f83c
00000120: 945d 6a3b 46fc 65bd 77af c63c bbb7 89bd
00000130: f113 53bd a179 26bd cacb 5b3e 95a8 5fbd
00000140: 7b8a 0b3e 6f73 f4bc 7816 9cbd bb16 20be
00000150: 5be7 fa3c 7b37 babb da43 a73d 9e64 30be
00000160: 8915 eabc d35a 9cbd fff1 003c 99fc 6fbd
00000170: 095e 9d3d 67b9 d03a 342a 073c d10f 383d
00000180: 20a8 723d a05a 52bd 2b27 9cbd cd7b 0ebe
00000190: b52a 883d 9f50 a63d cde7 34bc 2a7d d9bd
000001a0: cae4 06bd 8e36 c3bb 85eb 91bd c773 a1bd
000001b0: 5dee 31bd 3283 343c 5816 d6bd 8621 febc
000001c0: 2a49 cabd f655 5d3b 402b df3c c329 2a3d
000001d0: daf1 47bd 2c62 823d 3744 04bd b01b 463d
000001e0: fa55 d0bd 3de3 1fbe 78f6 19be 8f20 2b3e
000001f0: 0ee4 d6bd 1760 9fbc 2d51 51bc b965 e83d
00000200: fd31 89bd 6b03 85bd 726f b83d 9c01 7c3c
00000210: cd55 2f3c 89d8 133d e179 1b3c b2e4 4fbd
00000220: 022e 163b 0a05 393d db1c 42bd 909c 56bd
00000230: 674b 35bd 1517 c0bc 0c21 693d 9ea8 a93d
00000240: c81e a03c d162 89bd cdaf ce3c 565c dc3c
00000250: 8348 d93b f518 a6bd d723 243d c9f7 fdbd
00000260: e737 f4bc 4dbf d3bc 5901 0f3e cb8c 983c
00000270: 3ee8 48bb 1c3f c4bc e7e1 06bd 8c22 7a3d
00000280: 750e afbd 1f20 193d c392 de3c 1021 343e
00000290: 2edf 363d 5ad7 73bc 828d c83b e129 293c
000002a0: 06ca 49bd 88d4 a4bd fb0b 973d 04f2 3d3d
000002b0: dd4a c13c 66a4 f7bc 0b1c 773c 080f 50bc
000002c0: f39e d5bd 3af8 2c3d 83ca 893d ced6 293b
000002d0: e357 853c c75b 893d a33a ce3c 6b1c aa3a
000002e0: c78f e3bd 3ced 5a3d a031 0d3c 926e 083e
000002f0: 3421 5ebd c97a 76bc 880e aebc 4f74 723d
00000300: 30d6 7b3c 1753 553d 5092 843d 279f eb3d
00000310: 58d2 1cbe 0533 50bc 7857 e33d 84a4 b0bd
00000320: a4d7 603d 8879 88bd b2ac db3d 261a 183d
00000330: 0276 d53c 7275 13bc 5061 9e3d ef49 78bd
00000340: 5fcf 053c cb75 8c3c cb4b 9cbb 68e1 b73c
00000350: bf34 e63d adc8 2b3e 5151 d93d ce7d df3d
00000360: d71b c8bd 101a 0ebe e806 a5bd 33c4 2bbd
00000370: 10e5 43bc 9ccc b1bd 035c 6f3d 5871 d23d
00000380: 6015 00be 3e2d e9bd 1c74 a13d 730f 0fbe
00000390: 1efc d3bd aa2b ca3d ec9d fcbd 96a7 b4bc
000003a0: ec70 a53d 48bf a13d 1575 463e 8f7d e83c
000003b0: 1c46 8bbd 90e9 71bd ff9f e33d 8247 bbbd
000003c0: e50e 49bc 5de0 57bd 369d d03d 8d2e f1bc
000003d0: 68b2 06be f721 2fbd 6e8d 18be 79b3 8f3d
000003e0: eefc fa3c 03fe 51bb 68cc 913d 2d62 a53b
000003f0: 27c1 f3bc fcab c2bd 7908 673d dc52 c7bd

rnn.bias_ih_l0 f4 [384]
0.1010926 0.07700438 0.16212371 -0.022803798 0.114762686 0.10662617 0.09943837 -0.007878516
-0.002707683 0.05585819 0.10520622 0.086318664 0.13824205 0.10646912 0.010814003 0.044638697
0.069638155 0.10423683 0.12422247 0.1432625 0.08001312 0.10343721 0.13307634 -0.029428618
-0.02926701 0.13846844 0.04712695 0.103747204 0.0295741 0.07493638 -0.004682431 0.04154122
0.062094983 0.11253042 0.038158033 0.15411314 0.13922912 -0.0055529885 0.07104137 0.14085217
0.06859114 0.032512747 0.11726225 0.06772587 -0.045505535 0.040263545 0.17545688 0.16796765
0.1577684 0.109276265 0.06769991 0.035085786 0.119714744 0.10178478 0.08678043 0.090330906
0.12258427 0.100450695 0.07044563 0.08900205 0.123682745 0.07949767 0.027464705 0.08284578
-0.024793766 0.019961532 -0.023354841 0.13354194 0.119179755 -0.008180013 0.08867065 0.098877996
0.027046857 0.0005005517 0.112979874 0.096779376 0.010629436 0.1756608 0.17151041 0.10610094
0.15331915 0.018459361 -0.0035831323 0.001475641 0.11230793 0.007147202 0.00606384 -0.10677842
0.09229984 0.10188077 -0.012617193 0.15319176 0.15182124 0.05976697 0.040000282 -0.0075603104
0.16720767 0.051746324 0.0106755495 0.1329364 0.0063667493 0.111034125 0.10388604 -0.03683527
0.05009771 0.08489559 0.066956624 -0.026491715 0.13100445 0.12416418 0.05879026 0.1399631
0.10982926 0.0014818857 0.10643684 0.0758878 0.12702681 0.12615748 0.081932835 -0.016696475
0.03572306 -0.01311693 0.06602271 0.11800873 0.17904378 0.13227281 0.05012133 0.10885138
-0.010922384 -0.14799741 -0.1429783 -0.13073899 -0.18407367 -0.16587164 -0.14524423 -0.10465414
-0.08519423 -0.17048423 -0.18019272 -0.05967151 -0.048149563 0.090709545 -0.16164346 -0.20705342
-0.14794636 -0.039603125 -0.14305368 -0.09621781 -0.07468411 -0.16892175 -0.19955318 -0.19409972
-0.060154606 -0.053285576 -0.1437533 -0.031396974 -0.24557212 -0.07681913 -0.12905176 -0.07312829
-0.11104926 -0.09051066 -0.21478143 -0.07205025 -0.13159244 -0.20083727 -0.15263395 -0.12374563
-0.18182005 -0.14294109 -0.009564571 0.02134277 -0.02455661 -0.038541954 -0.13003795 -0.1459129
-0.11556415 -0.18745627 -0.15928169 -0.16218433 -0.17854029 -0.07846193 -0.11073018 -0.04704861
-0.03436627 -0.1489093 -0.108311124 -0.16391924 -0.2011368 -0.16891566 -0.1912093 -0.14855106
-0.023717616 -0.2020621 -0.092022724 -0.12951322 -0.1104249 -0.12033092 -0.048646905 -0.08547828
-0.049265698 -0.07189272 -0.101687185 -0.06703886 -0.15726505 -0.16142648 -0.055120002 -0.19242802
-0.19206196 -0.028039347 -0.1427733 -0.032526452 -0.11125463 -0.1622678 -0.13100795 -0.056937944
-0.12511659 -0.10228455 0.0049359566 -0.14169388 -0.21275394 -0.0425864 -0.1623008 -0.18599477
-0.05221278 -0.09288691 -0.020684917 -0.12456956 -0.1134184 -0.17415898 -0.16439097 -0.07282046
-0.13149273 -0.1326587 -0.01208422 -0.10996297 -0.21482687 -0.19637361 -0.10563441 0.0048879506
-0.07048919 -0.075617015 -0.17996497 -0.14638677 -0.17346607 -0.107125446 -0.033605963 -0.06359398
-0.17331511 -0.04360273 -0.06400353 -0.12813486 -0.16703768 -0.20015506 -0.070353515 -0.10707751
00000000: a309 cf3d 79b4 9d3d c203 263e 08cf babc
00000010: b308 eb3d d25e da3d 58a6 cb3d e414 01bc
00000020: 6273 31bb 8fcb 643d 5c76 d73d d7c7 b03d
00000030: 538f 0d3e 7b0c da3d 372d 313c 11d7 363d
00000040: 739e 8e3d 1e7a d53d 5a68 fe3d 68b3 123e
00000050: ebdd a33d e3d6 d33d 2a45 083e 4914 f1bc
00000060: 5ec1 efbc acca 0d3e 3008 413d 6a79 d43d
00000070: 6245 f23c 3f78 993d 146f 99bb 2027 2a3d
00000080: 4f57 7e3d 5976 e63d 994b 1c3d d6cf 1d3e
00000090: 1492 0e3e d8f5 b5bb 237e 913d 8d3b 103e
000000a0: 8379 8c3d 162c 053d 3127 f03d dcb3 8a3d
000000b0: 0364 3abd 63eb 243d f8aa 333e b6ff 2b3e
000000c0: 0a8e 213e 3ccc df3d 40a6 8a3d 1db6 0f3d
000000d0: 012d f53d 8a74 d03d f0b9 b13d 69ff b83d
000000e0: 760d fb3d 18b9 cd3d cc45 903d b546 b63d
000000f0: 614d fd3d adcf a23d a9fd e03c 0cab a93d
00000100: 4c1c cbbc 5e86 a33c a752 bfbc 38bf 083e
00000110: 8414 f43d 7605 06bc f598 b53d 8c80 ca3d
00000120: 5f91 dd3c 7537 033a fe61 e73d 4434 c63d
00000130: 1627 2e3c 6de0 333e 6da0 2f3e 734b d93d
00000140: b2ff 1c3e 1638 973c fcd2 6abb 4c6a c13a
00000150: b301 e63d 1333 ea3b 2db3 c63b a5ae dabd
00000160: b307 bd3d dda6 d03d 58b8 4ebc 4dde 1c3e
00000170: 0777 1b3e 36ce 743d 56d7 233d 7bbc f7bb
00000180: 7d38 2b3e f4f3 533d 80e8 2e3c 7b20 083e
00000190: 2aa0 d03b dc65 e33d 34c2 d43d 94e0 16bd
000001a0: 4233 4d3d bddd ad3d 8e20 893d 2705 d9bc
000001b0: 0826 063e ca49 fe3d 0ece 703d 7d52 0f3e
000001c0: 2aee e03d d53b c23a 8ffb d93d 106b 9b3d
000001d0: 5113 023e 6d2f 013e 67cc a73d 0cc7 88bc
000001e0: 5852 123d 64e8 56bc ea36 873d 90ae f13d
000001f0: 4157 373e 8672 073e 064c 4d3d 79ed de3d
00000200: cdf3 32bc a28c 17be e768 12be 71e0 05be
00000210: cf7d 3cbe 41da 29be e7ba 14be e954 d6bd
00000220: 507a aebd 6b93 2ebe 7184 38be 1d6a 74bd
00000230: 7a38 45bd edc5 b93d dd85 25be d005 54be
00000240: 407f 17be e336 22bd aa7c 12be d80d c5bd
00000250: fcf3 98bd d3f9 2cbe ab57 4cbe 14c2 46be
00000260: ad64 76bd fa41 5abd 1134 13be 1d9a 00bd
00000270: 4277 7bbe 5953 9dbd 2526 04be 49c4 95bd
00000280: cb6d e3bd a75d b9bd aaef 5bbe 158f 93bd
00000290: 2bc0 06be 49a8 4dbe 134c 1cbe 596e fdbd
000002a0: 092f 3abe 265f 12be b8b4 1cbc 08d7 ae3c
000002b0: f22a c9bc 2bde 1dbd ab28 05be 316a 15be
000002c0: e6ac ecbd 89f4 3fbe bd1a 23be a613 26be
000002d0: 44d3 36be a6b0 a0bd 81c6 e2bd 0bb6 40bd
000002e0: a5c3 0cbd ae7b 18be 39d2 ddbd 72da 27be
000002f0: cef6 4dbe 3af8 2cbe 5fcc 43be c51d 18be
00000300: 724b c2bc 5ee9 4ebe 6976 bcbd 1d9f 04be
00000310: 7326 e2bd 0f70 f6bd fa41 47bd 3d0f afbd
00000320: d4ca 49bd 7e3c 93bd 5f41 d0bd ab4b 89bd
00000330: 170a 21be fc4c 25be 83c5 61bd da0b 45be
00000340: e4ab 44be c6b2 e5bc 2a33 12be 753a 05bd
00000350: 78d9 e3bd 8829 26be f326 06be c337 69bd
00000360: 901e 00be 907a d1bd cebd a13b 3318 11be
00000370: 2bdc 59be 146f 2ebd 2e32 26be 6a75 3ebe
00000380: 11dd 55bd 7e3b bebd 6a73 a9bc 531e ffbd
00000390: e847 e8bd bb56 32be 1b56 28be e522 95bd
000003a0: 08a6 06be afd7 07be e4fc 45bc 4434 e1bd
000003b0: 93fb 5bbe 2a16 49be db56 d8bd 1a2b a03b
000003c0: a35c 90bd 18dd 9abd bd48 38be 6ae6 15be
000003d0: 17a1 31be 9664 dbbd 68a6 09bd 903d 82bd
000003e0: 8479 31be c798 32bd 4814 83bd c935 03be
000003f0: ed0b 2bbe 73f5 4cbe 8115 90bd 744b dbbd

rnn.bias_hh_l0 f4 [384]
-0.018121671 0.018624786 -0.000501018 0.13670944 0.07701964 0.14907044 0.060257915 0.07177134
0.0029632994 0.15798499 0.19456814 0.0029388312 0.15738943 0.08281075 0.12275269 0.08813
0.08236618 0.12220419 0.18184094 0.0334601 0.09108032 0.14671616 0.14550366 -0.027202489
0.05560816 0.044150863 0.049418457 0.13178359 0.020859284 -0.024351446 0.021308128 0.13591409
0.050679073 0.033661604 -0.02769894 0.049931344 0.038506996 0.12632155 0.057335135 0.10754007
0.032657415 0.10432559 0.16435921 0.054076657 -0.0031268455 0.086015984 0.13563742 0.041455198
0.1329943 0.007955382 0.15964052 0.115539044 0.0799933 0.03243033 0.03577187 0.097298004
0.13817653 0.055841282 -0.045376275 0.042025257 0.035739478 0.03669796 0.14228247 0.09774331
0.0681473 0.07602468 0.053611968 0.042225372 0.005165089 0.14415526 0.103294194 0.0989135
0.050214168 -0.03439243 0.001981523 0.05646442 0.03916878 0.1762912 0.14097434 0.07797194
0.1694966 0.11821922 0.028693397 -0.026077855 0.0023911113 0.034469828 0.13796353 0.029230196
0.08795357 0.056064673 0.04811378 0.01798815 0.13246876 0.120678976 0.15774046 0.055007763
0.09956206 0.0044669025 -0.0059424574 0.16432594 0.09356608 0.15388748 0.07101119 0.036248606
0.08201818 0.12187419 0.07686187 0.14399907 0.13771796 0.06736011 0.038364235 0.12780786
0.049407635 0.027648 0.08196199 0.121490434 0.10072761 0.11691864 0.12618618 0.054011714
0.11567898 -0.011461889 0.07590181 0.02996678 0.18582213 0.028187886 0.12953056 0.13434193
-0.11928376 -0.02581883 -0.19319241 -0.02145523 -0.04953002 -0.24032617 -0.051162466 -0.12667544
-0.104024805 -0.094937526 -0.2023884 -0.110260785 -0.14991069 0.07874661 -0.17222658 -0.066104166
-0.09063787 -0.16770177 -0.05576051 -0.08971362 -0.23297466 -0.21110205 -0.18401195 -0.142211
-0.07091042 -0.049968943 -0.023448994 -0.15076442 -0.07904829 -0.18230683 -0.088268794 -0.16088219
-0.08624801 -0.18253644 -0.16568229 -0.18874381 -0.185889 -0.05027814 -0.14159407 -0.10145601
-0.051075883 -0.05337305 -0.0949984 -0.078964114 -0.07586832 -0.07389342 -0.18229146 -0.120818645
-0.08364552 -0.15541518 -0.14349316 -0.06971603 -0.12371535 -0.102449276 -0.14581671 -0.13776113
-0.17892665 -0.11635213 -0.060170025 -0.11925528 -0.042492718 -0.1912009 -0.07378675 -0.21138586
-0.043266594 -0.218143 -0.14748108 -0.17282663 -0.11892512 -0.1049018 -0.09126412 -0.16218044
-0.11285984 -0.08404299 -0.07318205 -0.15068187 -0.047354586 -0.18405546 -0.1364376 -0.060614515
-0.08215012 -0.055571053 -0.25261417 -0.12924881 -0.08433083 -0.07849742 -0.21708268 -0.11375736
-0.1816823 -0.10328053 -0.12925743 0.006084463 -0.08088988 -0.056590557 -0.11751368 -0.18756354
-0.08657662 -0.15666816 -0.11343412 -0.10745842 -0.16779843 -0.20286624 -0.100363545 -0.13569155
-0.1785297 -0.15850967 -0.14279017 -0.10648471 -0.14357093 -0.08672857 -0.12981977 -0.02706628
-0.056361016 -0.13977751 -0.04956252 -0.095667034 -0.1036842 -0.0834696 -0.042487353 -0.14167345
-0.21944284 -0.08711436 -0.03576268 -0.18943328 -0.06549783 -0.10855083 -0.17145924 -0.08143825
00000000: e673 94bc 0293 983c c056 03ba 8ffd 0b3e
00000010: 79bc 9d3d eca5 183e 01d1 763d dafc 923d
00000020: ea33 423b d1c6 213e df3c 473e 6899 403b
00000030: b22a 213e af98 a93d c365 fb3d 807d b43d
00000040: 9aaf a83d 3146 fa3d 8334 3a3e 750d 093d
00000050: 5288 ba3d c33c 163e e9fe 143e c1d7 debc
00000060: 62c5 633d 89d7 343d 026b 4a3d 47f2 063e
00000070: 17e1 aa3c af7c c7bc 628e ae3c 102d 0b3e
00000080: dc94 4f3d c0e0 093d e3e8 e2bc cf84 4c3d
00000090: 83b9 1d3d 705a 013e 3fd8 6a3d f83d dc3d
000000a0: c8c3 053d a8a8 d53d c84d 283e 7c7f 5d3d
000000b0: c3eb 4cbb 2629 b03d 89e4 0a3e edcc 293d
000000c0: a82f 083e 4a57 023c ce78 233e bc9f ec3d
000000d0: 87d3 a33d aad5 043d 8685 123d 2d44 c73d
000000e0: 267e 0d3e d4b9 643d 79dc 39bd ad22 2c3d
000000f0: 8f63 123d 9a50 163d 7fb2 113e a52d c83d
00000100: d090 8b3d d4b2 9b3d 3998 5b3d 83f4 2c3d
00000110: e83f a93b 709d 133e e88b d33d 2993 ca3d
00000120: 5fad 4d3d 14df 0cbd 70dc 013b 3c47 673d
00000130: 716f 203d ae85 343e 945b 103e c1af 9f3d
00000140: 8490 2d3e eb1c f23d 6a0e eb3c 3aa1 d5bc
00000150: 31b4 1c3b 3c30 0d3d 5046 0d3e 2a74 ef3c
00000160: 0021 b43d 12a4 653d f412 453d e25b 933c
00000170: e4a5 073e 8a26 f73d b786 213e d24f 613d
00000180: 31e7 cb3d 185f 923b f2b8 c2bb 0f45 283e
00000190: 939f bf3d ae94 1d3e 516e 913d 6b79 143d
000001a0: 26f9 a73d 2d99 f93d c269 9d3d 7e74 133e
000001b0: f005 0d3e 19f4 893d d123 1d3d 10e0 023e
000001c0: a95f 4a3d 0f7e e23c b0db a73d facf f83d
000001d0: 474a ce3d 0a73 ef3d f336 013e 633b 5d3d
000001e0: 1ae9 ec3d a6ca 3bbc 6872 9b3d e57c f53c
000001f0: 2848 3e3e 48ea e63c a9a3 043e ee90 093e
00000200: 0b4b f4bd 0382 d3bc 3bd4 45be e1c2 afbc
00000210: fedf 4abd 1018 76be bc8f 51bd 35b7 01be
00000220: f50a d5bd 9b6e c2bd e83e 4fbe 68d0 e1bd
00000230: 3082 19be e745 a13d 2a5c 30be 9f61 87bd
00000240: 59a0 b9bd 03ba 2bbe 2265 64bd c6bb b7bd
00000250: e990 6ebe 232b 58be a16d 3cbe c39f 11be
00000260: 7b39 91bd 3cac 4cbd 1b18 c0bc fd61 1abe
00000270: 12e4 a1bd a4ae 3abe 45c6 b4bd 4dbe 24be
00000280: cca2 b0bd d5ea 3abe 9ea8 29be 0f46 41be
00000290: b059 3ebe 73f0 4dbd 09fe 10be 2bc8 cfbd
000002a0: f234 51bd b39d 5abd 858e c2bd f0b7 a1bd
000002b0: da60 9bbd 6f55 97bd 9daa 3abe c46f f7bd
000002c0: 584e abbd 2825 1fbe dfef 12be 47c7 8ebd
000002d0: 795e fdbd edd0 d1bd fa50 15be 4111 0dbe
000002e0: 8c38 37be 074a eebd d874 76bd 1d3c f4bd
000002f0: d80c 2ebd 2bca 43be 821d 97bd 8975 58be
00000300: 5038 31bd e160 5fbe 4805 17be 77f9 30be
00000310: 038f f3bd c1d6 d6bd afe8 babd a112 26be
00000320: 0f23 e7bd bb1e acbd 78e0 95bd 594c 1abe
00000330: e2f6 41bd 0979 3cbe 4cb6 0bbe ed46 78bd
00000340: 523e a8bd 799e 63bd a556 81be cd59 04be
00000350: a4b5 acbd 41c3 a0bd ec4a 5ebe 9ef9 e8bd
00000360: ed0a 3abe be84 d3bd 0f5c 04be 2d60 c73b
00000370: 98a9 a5bd 80cb 67bd 03ab f0bd a810 40be
00000380: 154f b1bd 9e6d 20be 2650 e8bd 2913 dcbd
00000390: 5ad3 2bbe 2bbc 4fbe 678b cdbd baf2 0abe
000003a0: 7dd0 36be 5c50 22be 9637 12be a814 dabd
000003b0: 4204 13be c09e b1bd 79ef 04be 1aba ddbc
000003c0: cfda 66bd d621 0fbe 1202 4bbd 14ed c3bd
000003d0: 6258 d4bd 1cf2 aabd 3807 2ebd d812 11be
000003e0: a0b5 60be 0369 b2bd e37b 12bd ccfa 41be
000003f0: ba23 86bd e64f debd 0393 2fbe 19c9 a6bd

fc.weight f4 [38, 128]
0.15712556 -0.10378943 -0.22242236 -0.20951569 0.13905616 -0.16576324 -0.09199303 0.087792404
0.19950123 -0.2024714 -0.09627793 0.2002858 -0.06066996 -0.072062775 -0.04701381 -0.18183532
-0.21381009 0.1624957 -0.04419115 -0.12122516 0.056825735 0.02453072 -0.11249068 0.19134021
-0.0652434 -0.053976044 0.15750107 0.045602463 0.20533359 -0.042704318 -0.10593121 -0.14612825
-0.08282165 -0.013831549 -0.019075597 -0.15929215 0.11824519 -0.038086608 0.08465693 0.18451042
0.0885973 -0.17141072 0.19793974 0.19966051 -0.01396758 0.19274688 0.19014186 -0.09370183
0.18246363 -0.06383475 0.1336326 -0.058752015 -0.09925656 -0.16988905 -0.19466673 0.13923527
-0.123490915 0.036215667 0.14539787 -0.07046747 0.010738032 0.1065173 0.15958089 -0.049812224
-0.019596443 -0.0031395447 0.052871708 0.010699366 -0.072715856 0.03157419 0.07132439 -0.013772982
-0.17519036 0.06952491 0.17461698 -0.13805307 0.1302005 0.09009046 -0.105535604 0.18730943
-0.07520384 0.116368696 0.1812447 -0.10025067 0.057337902 0.12390883 0.18445355 -0.059943117
0.06485645 -0.047802407 -0.017438402 -0.07111382 0.14495197 0.14763168 0.08220769 -0.010708764
-0.17680135 0.21429493 0.14608335 -0.030370058 -0.059935544 0.22779325 -0.07781809 0.10909433
0.16954091 -0.20689267 0.027913032 -0.096687086 -0.09183557 0.2137952 0.066569686 0.14541833
-0.18978682 0.13953668 -0.02337491 0.011384756 0.19770457 -0.081451274 -0.15064709 -0.15995643
0.17219768 -0.1731016 0.14172105 -0.12670952 -0.17291273 0.05330781 0.16895193 -0.12629862
0.03946573 -0.1816465 -0.073297046 0.057023533 0.16072714 -0.18151441 -0.16083843 0.13195117
0.019032907 -0.113757044 -0.21071938 0.11927288 0.16655923 -0.028326925 0.10532254 0.044572204
-0.03778368 0.11011421 -0.22765706 0.102127835 -0.1363175 0.08006017 -0.21156104 0.06826229
-0.14021029 0.0020267176 -0.03855073 -0.004572419 0.15124875 0.16720276 -0.107163556 -0.21998255
-0.18045339 0.1361368 0.057252586 0.115957625 0.08830859 -0.16557541 0.13782553 -0.02419904
-0.011513973 0.052869935 0.1660904 -0.15383235 -0.0618351 0.18146367 0.029174788 -0.13187023
0.16450448 -0.22294326 0.09610092 0.114852466 -0.03814317 -0.21423437 -0.22484808 0.1274747
0.17772274 0.15909286 0.17397703 -0.008186145 0.039237965 -0.118211776 -0.2323904 -0.11646103
0.12580715 0.039650343 0.1806373 -0.11063509 0.17582364 0.06944424 0.09829946 -0.19971219
-0.014316455 -0.09558342 -0.1847278 0.01654407 -0.17046756 0.094478965 -0.21237884 0.02664061
0.097504996 0.03577024 -0.03711671 -0.09930422 -0.24319845 0.24005777 -0.1881525 -0.04499478
-0.075201705 -0.14975516 0.23031361 0.08992513 0.14500694 0.082299255 0.028727852 -0.22244723
-0.16289006 -0.1146336 -0.10305815 0.010270391 -0.16920082 -0.095547624 -0.19678421 -0.08588174
-0.17584877 0.13004579 0.1504627 -0.15743606 -0.15446384 -0.08101962 -0.11653211 -0.10517902
-0.16371433 0.09410729 0.15286925 0.2420525 0.13111486 0.14695942 -0.058769338 0.039131586
-0.16384465 -0.03269322 -0.1002401 0.058167785 -0.19661348 -0.1515642 0.19651836 0.10723357
00000000: 86e5 203e 8d8f d4bd b0c2 63be 488b 56be
00000010: bd64 0e3e d7bd 29be d766 bcbd 81cc b33d
00000020: 0d4a 4c3e aa54 4fbe 5d2d c5bd b917 4d3e
00000030: 1081 78bd a695 93bd 8e91 40bd 0a33 3abe
00000040: 08f1 5abe 4665 263e c801 35bd e644 f8bd
00000050: 1ac2 683d a6f4 c83c 8361 e6bd b0ee 433e
00000060: 559e 85bd fc15 5dbd f647 213e a6c9 3a3d
00000070: f842 523e b9ea 2ebd 76f2 d8bd a5a2 15be
00000080: 669e a9bd b99d 62bc 6d44 9cbc 7b1d 23be
00000090: 892a f23d b400 1cbd 9d60 ad3d 4df0 3c3e
000000a0: 8072 b53d 4b86 2fbe b7b0 4a3e ce73 4c3e
000000b0: 47d8 64bc 705f 453e 8cb4 423e bfe6 bfbd
000000c0: bfd7 3a3e cbbb 82bd fcd6 083e f4a5 70bd
000000d0: 0647 cbbd 65f7 2dbe b756 47be b193 0e3e
000000e0: cee8 fcbd e156 143d 2ee3 143e 4051 90bd
000000f0: 92ee 2f3c be25 da3d 2c69 233e e707 4cbd
00000100: b888 a0bc d2c0 4dbb 0190 583d 654c 2f3c
00000110: 0dec 94bd f053 013d 8612 923d 13a8 61bc
00000120: 1a65 33be 1363 8e3d cbce 323e c95d 0dbe
00000130: 4853 053e 5981 b83d 0d23 d8bd 0bce 3f3e
00000140: 7904 9abd b652 ee3d 3698 393e 3950 cdbd
00000150: 26db 6a3d eac3 fd3d 64e1 3c3e ea86 75bd
00000160: 75d3 843d 75cc 43bd fbda 8ebc 1fa4 91bd
00000170: 4a6e 143e c22c 173e 815c a83d d073 2fbc
00000180: 6a0b 35be 2170 5b3e e096 153e a1ca f8bc
00000190: f97e 75bd a242 693e 175f 9fbd d96c df3d
000001a0: 229c 2d3e acdb 53be dfa9 e43c e103 c6bd
000001b0: 4a14 bcbd 21ed 5a3e b055 883d 8be8 143e
000001c0: 7a57 42be b4e2 0e3e bd7c bfbc 2187 3a3c
000001d0: 1173 4a3e edcf a6bd 3b43 1abe 9ecb 23be
000001e0: 9754 303e 8c41 31be 531f 113e 24c0 01be
000001f0: 0910 31be 4a59 5a3d bc01 2d3e 6d54 01be
00000200: d1a6 213d 8a01 3abe c31c 96bd 8291 693d
00000210: a895 243e eade 39be d4b2 24be 351e 073e
00000220: e6ea 9b3c 74f9 e8bd d2c6 57be 5745 f43d
00000230: 818e 2a3e de0d e8bc 58b3 d73d 5891 363d
00000240: 0fc3 1abd 8f83 e13d ef1e 69be 6628 d13d
00000250: d196 0bbe 96f6 a33d 75a3 58be 19cd 8b3d
00000260: 4993 0fbe aed2 043b 5fe7 1dbd 3bd4 95bb
00000270: f4e0 1a3e 3337 2b3e 9178 dbbd 1b43 61be
00000280: c6c8 38be 7267 0b3e b081 6a3d 317b ed3d
00000290: 22db b43d 9a8c 29be 2322 0d3e 113d c6bc
000002a0: 1aa5 3cbc 258e 583d 9a13 2a3e 3a86 1dbe
000002b0: cd46 7dbd 9dd1 393e f7ff ee3c fd08 07be
000002c0: dd73 283e 3d4b 64be 8fd0 c43d c537 eb3d
000002d0: 033c 1cbd 4160 5bbe 933e 66be ba88 023e
000002e0: f3fc 353e 3de9 223e 0927 323e 2e1f 06bc
000002f0: fdb7 203d 0419 f2bd c0f7 6dbe 1f83 eebd
00000300: 97d3 003e 6668 223d fcf8 383e a694 e2bd
00000310: 1d0b 343e c838 8e3d 3a51 c93d 5a81 4cbe
00000320: 918f 6abc 3dc1 c3bd 4929 3dbe 6e87 873c
00000330: 0c8f 2ebe 307e c13d d779 59be 693d da3c
00000340: b3b0 c73d d183 123d b107 18bd 0360 cbbd
00000350: 0409 79be b4d1 753e 0dab 40be 724c 38bd
00000360: 5a03 9abd 6b59 19be 55d7 6b3e ab2a b83d
00000370: b37c 143e 838c a83d ac56 eb3c 35c9 63be
00000380: a7cc 26be 05c5 eabd 2710 d3bd 2445 283c
00000390: fb42 2dbe 79ae c3bd cd81 49be c4e2 afbd
000003a0: b311 34be b92a 053e e512 1a3e eb36 21be
000003b0: c52b 1ebe 9ded a5bd 63a8 eebd 1968 d7bd
000003c0: bba4 27be 53bb c03d c289 1c3e 9cdc 773e
000003d0: f942 063e 887c 163e 1eb8 70bd 7148 203d
000003e0: e4c6 27be 53e9 05bd ae4a cdbd 5841 6e3d
000003f0: 0b55 49be a533 1bbe 1c3c 493e 469d db3d

fc.bias f4 [38]
-0.02303202 -0.03571989 -0.04744018 -0.0466703 0.054253854 -0.039369322 -0.032019638 0.004824754
-0.026381012 -0.061503813 -0.1133113 -0.0024657547 -0.027234135 0.035860557 0.0380081 -0.11310116
-0.011071998 -0.03619138 0.0225767 -0.109059244 0.0059257234 -0.0581028 0.0011968546 -0.112447575
-0.05318908 -0.040645245 0.11477669 0.006663128 0.042336255 -0.060297914 0.083209656 0.11246549
-0.0138631435 0.040614292 -0.08948365 -0.068433695 -0.1345683 -0.019709103
00000000: a6ad bcbc 054f 12bd a250 42bd 5b29 3fbd
00000010: 4a39 5e3d ba41 21bd 0627 03bd f818 9e3b
00000020: fe1c d8bc 6ceb 7bbd c10f e8bd 8098 21bb
00000030: 1f1a dfbc 85e2 123d 62ae 1b3d 95a1 e7bd
00000040: 5367 35bc 6a3d 14bd c6f2 b83c 745a dfbd
00000050: 922c c23b 34fd 6dbd c7df 9c3a ea4a e6bd
00000060: cbdc 59bd a17b 26bd 0b10 eb3d 5e56 da3b
00000070: c868 2d3d f2fa 76bd d369 aa3d 4f54 e63d
00000080: 3d22 63bc 2c5b 263d 3443 b7bd f726 8cbd
00000090: 46cc 09be fc74 a1bc
